visualize/sequence_output/LastFM_Spectral_Response/FMLPRec_complex_weight.npy (npy, 13440 bytes, 1 tensors)

array f4 [1, 26, 64, 2]
000000 6f 2d 91 3e b7 f6 13 bd 38 f1 0f 3f 07 6e fe 3c
       0.28354976 -0.036123957 0.56227446 0.031058325
000010 02 e4 a3 3e f0 cc 8f bc b8 48 3b 3e 42 ce 99 3b
       0.32009894 -0.017553777 0.18289459 0.0046937773
000020 f2 60 d6 3e d5 c3 e3 3b 7a c5 0b 3f e0 75 2b bd
       0.41870838 0.006950835 0.545982 -0.04186046
000030 6a f1 bc 3d bb eb af bc ba 89 d6 3e 5c 47 37 bd
       0.092257336 -0.02147471 0.41901952 -0.044745788
000040 43 9d 50 3f 95 56 36 bc d6 fe 4d 3e aa 11 37 bd
       0.8148996 -0.011129041 0.20116743 -0.04469458
000050 38 aa 13 3e e6 ee 02 3c 3f ec 20 3f bd 83 66 3b
       0.14420402 0.007991528 0.6286048 0.0035173737
000060 f0 ae 37 3e 61 82 b1 3c 55 40 46 3f 64 b1 3c bc
       0.17937827 0.021668615 0.7744191 -0.011516903
000070 23 39 90 3e 24 1a 05 bd 50 dd 26 3e b4 d2 6e bc
       0.28168592 -0.032495633 0.16295362 -0.014576603
000080 27 e1 2b 3e 14 1e a0 3b 97 a1 0a 3e 9c 59 55 bc
       0.16785108 0.004886398 0.13538204 -0.013021853
000090 e8 8d b1 3e ce 5d 3b 3d a8 03 56 3f c7 0e 16 bd
       0.34678578 0.045743756 0.8359933 -0.036635187
0000a0 cf 32 e7 3e 32 f7 48 3c 0d b7 33 3e d0 2e 46 bc
       0.4515595 0.012265967 0.17550297 -0.012096122
0000b0 83 15 af 3e 10 27 0c bd fa 46 bc 3e 39 a7 2f 3c
       0.341961 -0.03421694 0.367729 0.010721021
0000c0 80 8c 51 3f 58 8c d7 3c 95 2c b7 3e ee 82 49 bc
       0.8185501 0.026312038 0.357762 -0.0122992825
0000d0 d3 8c d0 3e 75 d4 e1 3a 41 0c 68 3e ce d6 dd bc
       0.4073244 0.0017229455 0.22660924 -0.027079966
0000e0 2e 0a 90 3e 34 02 7a bc 5d 37 0b 3f 75 01 da 3b
       0.28132766 -0.015259314 0.5438135 0.0066530057
0000f0 6b ae be 3d e2 15 57 bc e6 9a a8 3d 5e 33 1b bc
       0.09310611 -0.013127776 0.082326695 -0.009472696
000100 24 bc 5a 3e 2b 1d f3 bc 26 2a c3 3e 45 04 77 3c
       0.21360832 -0.029676994 0.38118094 0.0150767015
000110 ff d2 8c 3e ee 93 83 3c d8 09 65 3e 45 04 f3 bc
       0.27504727 0.01606175 0.22367036 -0.029665122
000120 6b 7c c1 3e ee 66 97 3c 83 99 31 3e 85 dd 8a 3b
       0.37790236 0.018481698 0.17343716 0.004237833
000130 d4 8b 01 3e 47 f3 49 3b 87 21 ac 3e 7f 77 06 bd
       0.12650996 0.003081517 0.3361933 -0.032828804
000140 13 c9 9e 3c a4 87 cb bb ab fd 8f 3e 72 22 35 bd
       0.019382989 -0.006211238 0.2812322 -0.044222303
000150 76 67 83 3e 15 de 33 3c 53 d9 41 3e 6f 96 ec bc
       0.25664872 0.010978241 0.18930559 -0.028880326
000160 b9 35 fd 3e 19 52 93 bc 0d b3 01 3e 5e 79 10 bc
       0.4945505 -0.017983483 0.12665959 -0.008817999
000170 cc a0 55 3e 65 12 74 3c 70 d8 9a 3d 59 53 89 bc
       0.2086212 0.014896964 0.075608134 -0.016763376
000180 fe d0 a1 3e 9c c3 c6 3b d5 3b 36 3e 45 b2 aa bc
       0.3160476 0.006065799 0.17796262 -0.020836959
000190 9a 3c e0 3e ae 74 11 ba 77 d6 de 3e a5 bf 4b 3b
       0.43796235 -0.00055486977 0.43523 0.003108957
0001a0 16 6a e9 3e 74 3e 6b 3b 39 51 90 3d 60 d3 01 3d
       0.4558875 0.003589538 0.07046742 0.031695724
0001b0 f4 22 2a 3f f2 6a 7d bc 3e d2 36 3d 6f 90 34 3d
       0.66459584 -0.015467392 0.044634096 0.044083055
0001c0 e4 fd ba 3e bc 61 9c bb c3 ce 05 3f 57 86 92 3c
       0.36521828 -0.004772393 0.5226862 0.017886324
0001d0 14 07 3d 3d 84 6c 25 3c 40 67 9b 3e 1c 97 ae 3c
       0.04614933 0.010096673 0.3035221 0.021312289
0001e0 9d 3f 84 3e d9 ab cf bc 5e 7b df 3e ee d7 9e bc
       0.25829783 -0.025350498 0.4364881 -0.019390073
0001f0 5d ac 50 3e 95 4d 5e bc d4 e6 37 3e 62 4b 2e 3b
       0.20378251 -0.013568302 0.17959148 0.0026595225
000200 66 07 d5 3d 05 62 0f be 12 da 37 3e 67 fb 92 be
       0.10401802 -0.14002235 0.17954281 -0.2870743
000210 49 37 c4 3d f5 e2 5d be f0 88 4d 3d c3 ab 0d bd
       0.09580857 -0.21668608 0.050179422 -0.034587633
000220 4a 28 41 3e 78 0e 96 be b9 82 70 3e 94 f8 c7 be
       0.18863025 -0.29307914 0.23487367 -0.39056838
000230 97 82 01 3e 87 5c a5 bd 89 46 44 3d c6 2a 1d be
       0.12647472 -0.08074289 0.04791883 -0.15348348
000240 e5 a4 df 3d 09 2d ba be 92 fe 78 3e e4 ad dc bd
       0.10920123 -0.36362484 0.24315861 -0.107753545
000250 bd 32 fa 3d e2 f8 15 be 99 cf db 3d db 6e a2 be
       0.12216709 -0.14645723 0.107329555 -0.317252
000260 2d e2 41 3e f1 01 87 bd ae 20 52 3e 43 84 07 bf
       0.18933935 -0.06592167 0.20520279 -0.5293619
000270 9c 93 aa 3d 97 30 e7 bd 63 aa fc 3d 44 96 49 be
       0.083289355 -0.11288565 0.12337186 -0.19686228
000280 cf 32 62 3d 48 08 d7 bd d7 7a fe 3d 89 7c 23 bd
       0.055224236 -0.104996264 0.124257736 -0.039913688
000290 13 7f 6c 3e 8f 7b e4 bd 76 74 47 3e 49 9e 9e be
       0.2309535 -0.111563794 0.1947802 -0.30980137
0002a0 cc 85 a2 3d 25 c4 35 be ff fb dd 3d 50 11 99 bd
       0.07935676 -0.17750604 0.1083908 -0.07474005
0002b0 5e 69 4b 3e f2 6c eb bd d3 db cc 3c 00 9a 06 be
       0.19864413 -0.11495389 0.025007164 -0.13144684
0002c0 8c 9a d8 3d 73 31 a7 be 28 ad 49 3e ee b7 54 be
       0.105763525 -0.32654914 0.1969496 -0.20773289
0002d0 87 3d 4e 3e 17 94 2f be 15 cb 52 3e 8e d4 26 be
       0.20140658 -0.17146336 0.20585282 -0.1629202
0002e0 f3 75 a5 3d 9a fe 6c be f9 7f 2c 3e 3c 28 bb be
       0.08079138 -0.23143998 0.16845693 -0.36554134
0002f0 6f c1 10 3e 09 2c a5 bd b8 6e d0 3d 2d 9a 35 bc
       0.14136289 -0.0806504 0.10177368 -0.011084122
000300 a8 1b 84 3d 0c ed 99 bc 07 ff b1 3d ab 52 23 be
       0.064505875 -0.01878979 0.08691221 -0.15949504
000310 d3 74 3e bc f0 94 6b bd 7c 32 95 3d 1a ba 7d bd
       -0.011624533 -0.057515085 0.0728502 -0.06194506
000320 68 04 9c 3d e4 3f 03 be ef 60 01 3e 2f 94 c9 bd
       0.07618028 -0.12817341 0.12634633 -0.09842717
000330 70 03 49 3d 69 03 a0 bc 0f 5b ef 3d 29 61 3f be
       0.049075544 -0.019532876 0.1168729 -0.18689407
000340 9d 38 36 3e 56 2d a6 bc 68 8d bf 3d 7a 11 bc bd
       0.17795034 -0.02028529 0.09353143 -0.09183021
000350 34 0f 17 3e 40 82 0c be 22 4d a2 3d 97 3d 0d be
       0.14751893 -0.13721561 0.07924868 -0.13793026
000360 60 4d 36 3e 43 66 3d be ce b4 eb 3d 9f 83 01 be
       0.17802954 -0.18496041 0.11509095 -0.12647866
000370 e5 26 47 3e db 80 37 be a3 c4 b3 3d 72 02 04 be
       0.19448431 -0.17920248 0.0877774 -0.12891558
000380 49 00 5e 3c 45 f1 e9 bd d2 ec 48 3d ae 5b d4 bd
       0.013549873 -0.11422972 0.049053974 -0.10369049
000390 f3 7d 23 3e 12 a9 9c be 16 4d 23 3e a8 f3 7f be
       0.15966015 -0.3059774 0.15947375 -0.24995291
0003a0 fd 01 a2 3d ee 44 39 be 4c d8 24 3d dd 08 98 3d
       0.079105355 -0.18092701 0.04024534 0.074235655
0003b0 63 0d 95 3d db cf 52 be b5 c3 03 3e fd 08 88 bd
       0.07277944 -0.20587103 0.12867625 -0.066423394
0003c0 5f fc 2a 3e f3 dc 97 bd 24 97 ee 3d 79 6d 91 be
       0.16697834 -0.074151896 0.116499215 -0.28403834
0003d0 a0 ea cc 3d e2 4c 60 3d 4c 3c bb 3d c3 02 8b bd
       0.10005689 0.05476082 0.0914236 -0.06787636
0003e0 7d c6 1f 3e 88 fb c2 bd e8 9f 80 3e 5b b3 43 be
       0.15603061 -0.09520632 0.25122 -0.19111387
0003f0 df fa 5f 3d f8 51 11 be 48 85 8e 3d 21 29 26 be
       0.05468261 -0.14191425 0.06959015 -0.16226627
